common/src/androidMain/assets/pose_classifier_push_up.tflite (tflite, 140240 bytes, 7 tensors)

sequential_2/dense_9/BiasAdd/ReadVariableOp f4 [152]
0.020823915 0.0019334253 -0.0037791044 0.0 0.0 0.023066254 0.02282906 0.024971932
0.0109455325 0.0 0.01252583 -0.0035301815 0.0177012 0.0 0.024724185 -0.001110265
-0.008859217 0.017093066 0.007931362 0.012013507 -0.0039111413 -0.0015542539 0.013074907 -0.008895735
-0.0056853527 0.0066491785 0.0020012965 0.018274536 0.0 0.028934034 -0.014039726 0.018952675
0.0204768 0.008251558 -0.000666804 0.018449435 -0.0032661103 0.0 0.009114726 0.0091414265
0.031675 0.0142049985 0.015009428 0.0063071297 0.005234093 0.01724435 0.016170641 -0.008522257
-0.009100818 -0.008090926 0.006247804 0.0 -0.018556941 0.0107930675 0.019207338 -0.0050661443
0.015266744 0.0058579524 0.0224222 0.0 0.0013151466 0.0 -0.0033403141 0.0
0.0026848668 -0.009573949 0.018078994 0.012930578 -0.007265784 0.0 -0.006477354 -0.01719269
0.037253246 0.0 0.0 0.007486516 0.012736246 0.0033394988 0.0062243636 0.015240004
0.00974138 0.002477728 0.019011768 0.0 -0.005149285 0.0018317406 -0.007079496 0.018746257
0.028350784 -0.010467129 0.02152932 0.021323388 0.02495769 0.0 -0.004232646 0.0
0.007745373 0.027492765 0.01613482 0.008965777 0.006443223 0.001827895 0.0 -0.010383795
0.01915926 -0.008748371 0.01622911 0.016970677 -0.0063621514 0.0039024649 -0.004566689 0.01957615
-0.015202704 0.014342081 -0.010973931 0.01807298 0.0089393705 -0.008969927 0.018608129 -0.0060496326
-0.008093697 -0.0060051596 0.011967482 0.017910773 0.019034328 0.0 0.00936216 0.0
0.02193035 0.0 0.018912384 0.0 0.013262767 0.0075107734 0.0 0.010977342
-0.013296703 0.017764226 0.025346195 0.012898478 -0.010668933 0.0 -0.013962121 -0.016354745
0.0 -0.010757104 0.018563766 0.016725183 0.0 -0.00748319 0.013462957 -0.005102878
00000000: ea96 aa3c fd6a fd3a daaa 77bb 0000 0000
00000010: 0000 0000 71f5 bc3c 0204 bb3c f091 cc3c
00000020: e454 333c 0000 0000 2439 4d3c 9e5a 67bb
00000030: 1b02 913c 0000 0000 608a ca3c 5086 91ba
00000040: 4026 11bc c206 8c3c 8bf2 013c 4dd4 443c
00000050: 0829 80bb 1bb8 cbba 2238 563c 6bbf 11bc
00000060: 324c babb 5ae1 d93b 2f28 033b 7bb4 953c
00000070: 0000 0000 1107 ed3c e106 66bc a442 9b3c
00000080: f6be a73c 8b31 073c 75cc 2eba 4523 973c
00000090: 3d0c 56bb 0000 0000 ef55 153c ecc5 153c
000000a0: a5bd 013d 15bc 683c 1bea 753c 0aac ce3b
000000b0: c182 ab3b 0644 8d3c 4b78 843c f0a0 0bbc
000000c0: 991b 15bc ce8f 04bc 61ba cc3b 0000 0000
000000d0: ba04 98bc 68d5 303c b558 9d3c e601 a6bb
000000e0: 5e21 7a3c 11f4 bf3b c3ae b73c 0000 0000
000000f0: ff60 ac3a 0000 0000 2ce9 5abb 0000 0000
00000100: 97f4 2f3b 0ddc 1cbc 661a 943c c6da 533c
00000110: d015 eebb 0000 0000 fc3f d4bb afd7 8cbc
00000120: dc96 183d 0000 0000 0000 0000 7351 f53b
00000130: b0ab 503c 7edb 5a3b bff5 cb3b 36b1 793c
00000140: 4f9a 1f3c 6161 223b 91be 9b3c 0000 0000
00000150: 55bb a8bb 0417 f03a 1efb e7bb c091 993c
00000160: e73f e83c 527e 2bbc 425e b03c 63ae ae3c
00000170: 1274 cc3c 0000 0000 02b2 8abb 0000 0000
00000180: e6cc fd3b 8238 e13c 2c2d 843c 32e5 123c
00000190: ac21 d33b fa95 ef3a 0000 0000 cb20 2abc
000001a0: e1f3 9c3c 5455 0fbc e9f2 843c 1706 8b3c
000001b0: 9879 d0bb 7fc0 7f3b 2aa4 95bb 2a5e a03c
000001c0: c314 79bc 0cfb 6a3c 01cc 33bc c90d 943c
000001d0: 7076 123c 9af6 12bc 1370 983c ff3b c6bb
000001e0: 6d9b 04bc eec6 c4bb 4213 443c 9db9 923c
000001f0: e1ed 9b3c 0000 0000 bf63 193c 0000 0000
00000200: 47a7 b33c 0000 0000 25ee 9a3c 0000 0000
00000210: 144c 593c ef1c f63b 0000 0000 4fda 333c
00000220: 6ada 59bc 4886 913c d3a2 cf3c 2354 533c
00000230: c0cc 2ebc 0000 0000 61c1 64bc 63fa 85bc
00000240: 0000 0000 903e 30bc 0a13 983c 4003 893c
00000250: 0000 0000 8c35 f5bb bc93 5c3c 0b36 a7bb

sequential_2/dense_10/BiasAdd/ReadVariableOp f4 [38]
0.0072474238 0.017608987 0.0 0.018311342 0.018826034 0.018965986 0.0021649008 0.021805383
0.017075505 0.016414778 0.0 0.017303426 0.016218007 0.018178398 -0.0052229734 0.0
0.0 0.0 0.000105006824 0.021798616 0.010668617 -0.013234063 0.0 -0.011327329
-0.004022994 -0.013115908 0.015455484 0.0 0.015071287 0.004050622 -0.020632256 -0.015892383
0.019446895 -0.005922657 -0.008823073 0.0020492903 0.018789262 0.0
00000000: cc7b ed3b b940 903c 0000 0000 ab01 963c
00000010: 0e39 9a3c 8e5e 9b3c 02e1 0d3b 34a1 b23c
00000020: eee1 8b3c 4978 863c 0000 0000 eabf 8d3c
00000030: a0db 843c ddea 943c 7a25 abbb 0000 0000
00000040: 0000 0000 0000 0000 1c37 dc38 0393 b23c
00000050: 6ccb 2e3c afd3 58bc 0000 0000 4396 39bc
00000060: 52d3 83bb 1be4 56bc 0039 7d3c 0000 0000
00000070: 8fed 763c 15bb 843b fa04 a9bc be30 82bc
00000080: 184f 9f3c d912 c2bb a68e 10bc 634d 063b
00000090: f0eb 993c 0000 0000

sequential_2/dense_8/BiasAdd/ReadVariableOp f4 [152]
0.011831316 1.8836989e-05 0.023618514 0.0 0.0 0.01486852 -0.00890172 0.0129292905
-0.0027029018 0.005047438 0.0047425246 -0.0012675407 -0.007964071 0.016774697 0.008495998 0.0067164996
0.01633041 -0.00444918 0.0 0.0 0.02551327 0.0015726202 0.0025091905 -0.011229455
-0.005509183 0.017037565 0.0029277161 0.012276723 -0.0027981307 -0.0086694695 0.0 0.034792956
-0.013203617 -0.00521588 0.008514115 0.012011098 -0.00023713498 0.02071684 0.008814239 -0.0057401834
0.018774947 0.0 -0.0175434 0.01128153 0.0 -0.015340577 0.018324722 0.020385008
0.0 0.0054146205 0.0 -0.002447072 -0.0088951355 0.018630529 -0.006173202 0.002814881
0.011955425 0.020488976 -0.0013797564 0.012377429 0.029886056 0.015277649 -0.0051102284 -0.015678538
-0.016185686 0.009944344 0.013418216 0.0045998427 0.0073697083 0.010811951 0.029744983 0.012986199
0.015573227 0.008086131 0.0 0.011033525 0.0125130275 0.0 0.015275608 0.0
-0.0071662283 0.0 -0.010344674 0.014313781 -0.015790604 0.021149587 0.01456102 0.0095434375
-0.0021466925 0.0069875335 -0.003195407 0.015824884 0.024718834 0.019592242 0.0037284885 -0.0106916465
0.0 0.0047657574 0.0 -0.015498576 -0.013537828 0.009948831 -0.010615304 0.016459053
0.020968398 -0.005976294 0.012672041 0.0 -0.013525902 0.018447578 0.019304587 0.015294942
0.012667114 0.011246597 0.018386872 0.017622959 0.0 -0.013964999 0.01821257 0.0
0.026265187 0.006934833 0.020022972 -0.0108117685 0.026675638 0.020567205 0.0 -0.009879401
0.015680121 0.019017033 0.0019519993 0.004259289 -0.01222548 -0.0010216401 0.018912904 0.021051155
0.022869075 0.0 0.008839448 -0.017765233 0.0 0.0 -0.009876646 -0.00056701887
0.0 0.019253325 0.0108645875 -0.019367047 0.0068922485 -0.0062545147 0.018043594 0.013111079
00000000: 23d8 413c 2004 9e37 9d7b c13c 0000 0000
00000010: 0000 0000 189b 733c 85d8 11bc 60d5 533c
00000020: 2b23 31bb fb64 a53b 2e67 9b3b 9c23 a6ba
00000030: bc7b 02bc 176b 893c cc32 0b3c 1516 dc3b
00000040: 5ac7 853c 6dca 91bb 0000 0000 0000 0000
00000050: 3501 d13c 6120 ce3a 3b71 243b bffb 37bc
00000060: 6086 b4bb 5d92 8b3c edde 3f3b 4f24 493c
00000070: d860 37bb 640a 0ebc 0000 0000 0f83 0e3d
00000080: fc53 58bc f9e9 aabb c97e 0b3c 32ca 443c
00000090: 70a7 78b9 5db6 a93c 9969 103c 2618 bcbb
000000a0: ebcd 993c 0000 0000 2db7 8fbc 2bd6 383c
000000b0: 0000 0000 0b57 7bbc ba1d 963c 76fe a63c
000000c0: 0000 0000 216d b13b 0000 0000 0e5f 20bb
000000d0: e7bc 11bc 0d9f 983c 9248 cabb de79 383b
000000e0: b0e0 433c 7fd8 a73c f1d8 b4ba b3ca 4a3c
000000f0: 9ad3 f43c 1b4f 7a3c b473 a7bb 4770 80bc
00000100: d897 84bc 9aed 223c 14d8 5b3c 47ba 963b
00000110: 987d f13b 9c24 313c c0ab f33c 11c4 543c
00000120: d926 7f3c b17b 043c 0000 0000 f5c5 343c
00000130: 7103 4d3c 0000 0000 8b46 7a3c 0000 0000
00000140: aed2 eabb 0000 0000 b57c 29bc 5984 6a3c
00000150: 4c5b 81bc e641 ad3c 5891 6e3c 145c 1c3c
00000160: 86af 0cbb aef7 e43b 096a 51bb 30a3 813c
00000170: 277f ca3c e97f a03c a859 743b 042c 2fbc
00000180: 0000 0000 122a 9c3b 0000 0000 bded 7dbc
00000190: c4cd 5dbc 6c00 233c d0eb 2dbc 23d5 863c
000001a0: ebc5 ab3c cad4 c3bb 649e 4f3c 0000 0000
000001b0: bf9b 5dbc 601f 973c a724 9e3c a397 7a3c
000001c0: ba89 4f3c a643 383c 11a0 963c 065e 903c
000001d0: 0000 0000 73cd 64bc 8732 953c 0000 0000
000001e0: 172a d73c 983d e33b 3707 a43c d823 31bc
000001f0: de86 da3c 8e7c a83c 0000 0000 36dd 21bc
00000200: 9973 803c 9cc9 9b3c 3ada ff3a 8191 8b3b
00000210: 614d 48bc 8ee8 85ba 3cef 9a3c 7973 ac3c
00000220: ed57 bb3c 0000 0000 55d3 103c 6588 91bc
00000230: 0000 0000 0000 0000 a8d1 21bc fea3 14ba
00000240: 0000 0000 26b9 9d3c 6201 323c a4a7 9ebc
00000250: 5fd8 e13b acf2 ccbb 29d0 933c dacf 563c

sequential_2/dense_8/MatMul f4 [152, 34]
-0.008230956 0.031128624 -0.17084768 0.042834852 0.013682023 -0.059316512 0.12948568 -0.10082979
-0.1185303 0.06468632 -0.16423398 0.07955361 0.12348872 0.05470775 -0.1637392 0.055193678
-0.13783088 -0.07638741 -0.08402369 -0.037242018 0.08766284 -0.033838198 0.06969953 -0.13039742
-0.06632246 0.13802485 0.00987128 -0.013334295 0.12547636 0.18730909 0.10344069 -0.033831548
0.15469398 -0.10427991 -0.040435955 0.14041947 0.18056957 0.17279491 0.035140764 -0.07911407
0.052837655 0.124981485 0.04174889 0.1856687 0.021862283 -0.07125496 -0.14093415 0.19369882
0.15012929 0.1145669 0.16685769 0.13464098 0.028027387 -0.014111168 0.18444099 -0.12651218
-0.016607704 0.027764315 -0.119826965 -0.018473152 0.037769776 -0.0327526 -0.05377782 -0.014983157
-0.16705453 -0.15352471 -0.0628534 0.0026285436 -0.11606784 -0.1713812 0.1865731 -0.022516571
0.07577617 -0.15291043 -0.11152226 -0.16405754 0.08203953 -0.16963921 0.119530566 -0.16834271
-0.13739625 -0.046636075 0.07082446 0.05572981 -0.037687574 0.0045725014 0.22013377 -0.08254644
0.030151684 0.068581164 -0.081149146 -0.039901022 -0.0033597257 0.18488011 -0.08260771 0.20045108
0.01162884 0.008120512 -0.08739911 0.1032041 -0.13897522 0.04719061 0.109048694 -0.14337823
0.007901758 0.03558299 -0.03863752 -0.07464946 -0.09456793 0.1432958 -0.16116062 0.1321244
-0.0045364797 -0.17669149 0.0068832934 -0.14254284 -0.081128486 -0.13234937 0.019919887 0.0346023
-0.17309888 0.1374493 0.07594997 0.009509489 0.116791934 0.12808082 -0.08794229 0.089583755
0.12487081 0.005376205 0.08473456 -0.09533901 -0.14374487 -0.034096107 -0.08677172 -0.17326528
-0.12464917 -0.06643767 -0.05767276 -0.04551816 0.010160759 -0.13989541 -0.11140469 -0.08701876
0.023227781 -0.006366238 -0.10944938 0.07713899 0.07131806 0.0780144 -0.018788382 0.05241637
0.0051374286 -0.075057074 0.13667214 -0.17225641 -0.013257846 -0.14836691 0.043313175 -0.032571465
0.04807104 0.10280383 -0.009863064 -0.039043084 -0.14000764 0.13410011 0.15461534 0.031151548
-0.0636942 -0.13999695 -0.17369777 -0.01002566 -0.07086028 -0.03391233 0.041815422 -0.14501636
-0.06390229 -0.20370543 -0.045265183 0.047388103 0.15842904 0.07781261 0.12419908 -0.20055577
-0.06312237 0.018747346 0.14311752 -0.034606606 0.06582394 -0.08677503 0.13827838 -0.0029921958
0.086345814 -0.12469485 -0.031191405 0.15523006 0.12690327 0.1634355 -0.113746755 -0.037871808
0.16150716 -0.022898745 -0.02819829 0.017480757 0.031583227 0.15758178 -0.03639448 0.043713238
0.07414225 -0.04010843 0.07622589 0.09872298 -0.17714062 -0.06549727 -0.09033717 0.17600013
0.13272206 0.086026005 0.15098591 -0.097148746 0.11694129 -0.049906664 -0.07653506 -0.041541822
0.06214282 -0.12808248 0.13840428 0.0096128555 -0.15096486 0.14223543 -0.078441024 0.107777126
-0.09030298 -0.164976 0.12339677 -0.13137239 -0.015613709 0.09836613 -0.03576822 0.14734559
0.06081568 0.0994419 -0.02627787 -0.014410455 -0.061012026 0.031931844 -0.04555367 -0.20254268
0.12069713 -0.1807864 0.14443727 0.082158946 0.046360407 -0.044027545 0.085338816 -0.035187665
00000000: 22db 06bc 7501 ff3c b2f2 2ebe 9973 2f3d
00000010: 902a 603c dff5 72bd e597 043e d97f cebd
00000020: 04c0 f2bd 437a 843d f42c 28be 01ed a23d
00000030: a7e7 fc3d 3c15 603d 40ab 27be c412 623d
00000040: 8a23 0dbe 0171 9cbd 9d14 acbd 168b 18bd
00000050: 9388 b33d ec99 0abd a1be 8e3d e786 05be
00000060: 12d4 87bd 6356 0d3e 26bb 213c 1678 5abc
00000070: e07c 003e f4cd 3f3e b6d8 d33d f392 0abd
00000080: 1968 1e3e b590 d5bd 2ca0 25bd 1fca 0f3e
00000090: 3be7 383e 26f1 303e c3ef 0f3d 8f06 a2bd
000000a0: 4c6c 583d 4bf6 ff3d e200 2b3d f01f 3e3e
000000b0: 8818 b33c 1fee 91bd 0b51 10be fc58 463e
000000c0: 7ebb 193e 0da2 ea3d bedc 2a3e 53df 093e
000000d0: b199 e53c 8732 67bc 19de 3c3e 698c 01be
000000e0: e10c 88bc fd71 e33c d767 f5bd 0255 97bc
000000f0: 7bb4 1a3d 9727 06bd 2246 5cbd ea7b 75bc
00000100: 5810 2bbe 9535 1dbe 49b9 80bd a543 2c3b
00000110: fab4 edbd 8e7e 2fbe 050d 3f3e ac74 b8bc
00000120: 8930 9b3d 8d94 1cbe c865 e4bd b3fe 27be
00000130: 5704 a83d e7b5 2dbe 71cc f43d 0862 2cbe
00000140: 9ab1 0cbe 7805 3fbd 6a0c 913d f144 643d
00000150: 495e 1abd ecd4 953b bf6a 613e 1c0e a9bd
00000160: aa00 f73c 4874 8c3d 8631 a6bd 416f 23bd
00000170: d82e 5cbb 3651 3d3e 3b2e a9bd 0c43 4d3e
00000180: e486 3e3c e50b 053c 4efe b2bd ac5c d33d
00000190: 854f 0ebe f14a 413d ec54 df3d bed1 12be
000001a0: 6076 013c 78bf 113d 6042 1ebd d1e1 98bd
000001b0: d5ac c1bd 22bc 123e 4a07 25be 9e4b 073e
000001c0: c0a6 94bb 9dee 34be 408d e13b c0f6 11be
000001d0: b126 a6bd 9886 07be 082f a33c 24bb 0d3d
000001e0: d540 31be 82bf 0c3e a88b 9b3d b0cd 1b3c
000001f0: 9c30 ef3d 9e27 033e 161b b4bd b077 b73d
00000200: 44bc ff3d e02a b03b 5089 ad3d 1941 c3bd
00000210: db31 13be 5ca8 0bbd 5fb5 b1bd 746c 31be
00000220: 1048 ffbd 7910 88bd 463a 6cbd 4071 3abd
00000230: 5079 263c be40 0fbe 2428 e4bd e436 b2bd
00000240: 3048 be3c e09b d0bb ff26 e0bd 0cfb 9d3d
00000250: 340f 923d 04c6 9f3d 18ea 99bc 8cb2 563d
00000260: e057 a83b 86b7 99bd c8f3 0b3e fc63 30be
00000270: 7037 59bc 7fed 17be 2869 313d a869 05bd
00000280: 24e6 443d d08a d23d b098 21bc a4eb 1fbd
00000290: 2a5e 0fbe 8a51 093e 7c53 1e3e 8831 ff3c
000002a0: 1b72 82bd 5c5b 0fbe d4dd 31be aa42 24bc
000002b0: 321f 91bd a8e7 0abd a646 2b3d 2b7f 14be
000002c0: 34df 82bd 2898 50be fc67 39bd 071a 423d
000002d0: 393b 223e 385c 9f3d 165c fe3d 7e5e 4dbe
000002e0: 4d46 81bd 0994 993c 668d 123e a8bf 0dbd
000002f0: b4ce 863d 1bb7 b1bd d998 0d3e b718 44bb
00000300: 13d6 b03d 0360 ffbd 1e85 ffbc a1f4 1e3e
00000310: eef2 013e a35b 273e 0ff4 e8bd 781f 1bbd
00000320: 2262 253e 2696 bbbc 1a00 e7bc ce33 8f3c
00000330: 6a5d 013d 1e5d 213e 6112 15bd a70c 333d
00000340: e4d7 973d bd48 24bd 521c 9c3d 462f ca3d
00000350: 5a64 35be 6f23 86bd b202 b9bd 6139 343e
00000360: 4be8 073e 672e b03d 0d9c 1a3e ecf5 c6bd
00000370: ea7e ef3d ee6a 4cbd 6abe 9cbd c227 2abd
00000380: 7889 7e3d 0e28 03be dab9 0d3e 3d7f 1d3c
00000390: 8896 1abe 2aa6 113e b0a5 a0bd 41ba dc3d
000003a0: c5f0 b8bd 78ef 28be 72b7 fc3d 7c86 06be
000003b0: a4d0 7fbc 2e74 c93d b281 12bd c3e1 163e
000003c0: dd19 793d 32a8 cb3d b044 d7bc d419 6cbc
000003d0: bfe7 79bd f7ca 023d 7c96 3abd 5967 4fbe
000003e0: 0f30 f73d 1220 39be 5de7 133e f342 a83d
000003f0: 69e4 3d3d 3a56 34bd 1ec6 ae3d f120 10bd

sequential_2/dense_9/MatMul f4 [152, 152]
-0.051705807 0.105559625 0.04464465 0.12655328 -0.09682275 0.11602312 -0.060738463 0.085308865
0.14087991 0.0408662 0.096245624 0.012402136 -0.017325107 -0.13395207 0.1336828 0.14021043
-0.07529092 0.038944855 0.09429006 -0.026702888 -0.09688394 -0.16083871 -0.10232715 0.15558848
-0.093565375 0.13874461 -0.008952718 -0.11633133 -0.11400822 -0.00379952 -0.0652426 -0.16083787
0.08029048 0.15520895 -0.09126149 0.13973017 0.13188201 -0.05169731 0.029225266 -0.06781408
0.13965388 0.059166923 -0.037487034 -0.10489848 -0.027835883 -0.016211445 0.050465833 0.017163886
-0.034312397 0.1171516 0.05849375 -0.119638056 0.12554666 -0.0017164402 -0.13446365 -0.059695117
-0.08813986 -0.108112745 0.15821807 0.14037646 0.094906315 -0.17116207 -0.010798559 0.1247976
0.100362234 0.09829259 -0.06725618 0.16614516 -0.053853225 0.13474067 0.0408715 0.038839575
0.053852014 0.010240371 -0.08003721 -0.019682394 -0.02548442 0.10129395 0.082708456 0.12310363
-0.059449125 0.0020468086 0.04665297 0.11217322 -0.116104804 0.037512816 -0.053001713 -0.036622327
-0.02395689 -0.15852445 -0.16299342 -0.14506863 0.038848188 -0.097802475 -0.03931939 0.055272277
0.005410403 0.011086202 0.032565936 0.012355445 -0.08843645 -0.0620089 -0.11762167 0.099230625
-0.11306318 0.092204526 0.1278578 -0.0014107674 -0.046510044 -0.15537207 0.12074856 0.045419756
0.06128957 0.07088545 -0.15366597 0.07796354 0.0344716 0.06326608 0.017300742 -0.009713799
0.058537405 -0.14793043 0.04488796 0.025520908 0.005064208 -0.067551166 0.105996445 0.093356624
-0.11103674 0.06305674 0.16430005 -0.08457644 -0.10382272 0.16832362 0.05972104 0.101352766
0.08068545 0.12695487 0.1923391 -0.023034146 -0.04538682 -0.09751335 0.11129613 0.15939431
-0.09795089 -0.1418174 0.11803203 0.099107444 0.035744853 -0.007545892 -0.043179538 0.09376722
-0.104890786 -0.0038010902 0.13074066 0.0078843385 0.006833732 0.14488731 -0.062651835 0.105926976
-0.07998699 -0.010031755 -0.11078355 -0.04065977 -0.10519139 0.06823291 0.101361215 -0.111786164
0.010977773 0.115411 -0.1388509 -0.038786776 0.13432239 -0.06655145 -0.05150387 -0.13234673
-0.034460947 -0.027862538 -0.015583555 -0.050115928 0.032846678 0.077555954 0.04071763 0.17076771
-0.009378108 -0.017134085 -0.07801128 -0.13993202 0.12108169 0.025742281 0.14235058 0.13933198
-0.027531566 -0.045049958 0.087172665 0.04653404 -0.10439173 -0.100358345 0.043042295 -0.12881608
0.031987786 -0.13967757 0.0156921 0.12640314 -0.024653219 -0.08918476 0.17791703 -0.006441707
-0.10738687 0.15154666 -0.12932737 -0.037857294 -0.031592 -0.044434067 -0.006643812 0.10611927
-0.16639772 -0.102215424 0.12254584 -0.19417465 0.019213613 0.085567676 0.06791659 -0.07271127
0.13036509 -0.08816083 -0.044927232 0.06869083 -0.14922293 -0.07474863 -0.0500892 -0.11242415
-0.044311896 0.0013272762 -0.026329529 -0.006418566 -0.027916836 0.122341566 0.07827163 0.12364629
-0.00027518367 0.1530477 0.0069087236 0.16081583 0.15144305 0.15433307 0.017974341 0.050803963
0.11279498 -0.0076490436 0.07031156 -0.058848184 -0.10603976 -0.109165005 -0.031499658 0.06017603
00000000: 78c9 53bd a52f d83d 4fdd 363d 2f97 013e
00000010: 024b c6bd 889d ed3d e5c8 78bd 6ab6 ae3d
00000020: d342 103e 5163 273d 6d1c c53d 5432 4b3c
00000030: 62ed 8dbc bb2a 09be 25e4 083e 5393 0f3e
00000040: 2032 9abd a484 1f3d 261b c13d 04c0 dabc
00000050: 166b c6bd e7b2 24be e690 d1bd 9652 1f3e
00000060: 349f bfbd 1113 0e3e 6cae 12bc 1f3f eebd
00000070: 247d e9bd 5e01 79bb ea9d 85bd afb2 24be
00000080: 566f a43d 18ef 1e3e 4ee7 babd 6d15 0f3e
00000090: 140c 073e 8fc0 53bd d369 ef3c 1ce2 8abd
000000a0: 6d01 0f3e 0459 723d 018c 19bd 04d5 d6bd
000000b0: 1408 e4bc ddcd 84bc 43b5 4e3d 479b 8c3c
000000c0: 288b 0cbd 2eed ef3d 2497 6f3d cc04 f5bd
000000d0: 4e8f 003e 2dfa e0ba d7b0 09be de82 74bd
000000e0: ac82 b4bd 376a ddbd eb03 223e d9be 0f3e
000000f0: 3e5e c23d 1c45 2fbe 70ec 30bc e295 ff3d
00000100: b78a cd3d a04d c93d 9cbd 89bd f521 2a3e
00000110: 3395 5cbd 75f9 093e e068 273d 3f16 1f3d
00000120: ee93 5c3d 3bc7 273c 8cea a3bd f93c a1bc
00000130: b4c4 d0bc 3473 cf3d 0d63 a93d c21d fc3d
00000140: ed80 73bd c023 063b 2f17 3f3d 13bb e53d
00000150: 5bc8 edbd 0aa7 193d 5318 59bd 4b01 16bd
00000160: 3d41 c4bc 3c54 22be bfe7 26be df8c 14be
00000170: 471f 1f3d aa4c c8bd 5e0d 21bd 2f65 623d
00000180: c049 b13b e7a2 353c dc63 053d 7e6e 4a3c
00000190: 2b1e b5bd 0bfd 7dbd a1e3 f0bd 6d39 cb3d
000001a0: ab8d e7bd bad5 bc3d 28ed 023e 80e9 b8ba
000001b0: 5181 3ebd db19 1fbe 054b f73d 110a 3a3d
000001c0: c60a 7b3d 642c 913d 9d5a 1dbe 59ab 9f3d
000001d0: 1832 0d3d a691 813d 49ba 8d3c a026 1fbc
000001e0: ebc4 6f3d 137b 17be 70dc 373d 3911 d13c
000001f0: a8f1 a53b 4458 8abd aa14 d93d c231 bf3d
00000200: 3b67 e3bd e423 813d 463e 283e 6a36 adbd
00000210: 02a1 d4bd 075d 2c3e 0d9e 743d 0a92 cf3d
00000220: 6a3e a53d 7500 023e 8bf4 443e 1bb2 bcbc
00000230: 88e7 39bd 14b5 c7bd 3aef e33d 4338 233e
00000240: 7a9a c8bd 9538 11be c7ba f13d d8f8 ca3d
00000250: 3269 123d 8843 f7bb 07dd 30bd 0709 c03d
00000260: fbd0 d6bd b61b 79bb e1e0 053e 502d 013c
00000270: 80ed df3b 575d 143e 9b4f 80bd 3ef0 d83d
00000280: 38d0 a3bd 3b5c 24bc 7ce2 e2bd dc8a 26bd
00000290: 956e d7bd b2bd 8b3d 7896 cf3d 25f0 e4bd
000002a0: 1edc 333c 9a5c ec3d ee2e 0ebe e2de 1ebd
000002b0: cf8b 093e 204c 88bd b9f5 52bd e785 07be
000002c0: ec26 0dbd fa3f e4bc 2b52 7fbc 5c46 4dbd
000002d0: 3d8a 063d a8d5 9e3d 88c7 263d bbdd 2e3e
000002e0: a3a6 19bc c85c 8cbc 61c4 9fbd 574a 0fbe
000002f0: adf9 f73d 7ae1 d23c 5ac4 113e 0bad 0e3e
00000300: e189 e1bc 4e86 38bd 9587 b23d 7a9a 3e3d
00000310: 55cb d5bd ad88 cdbd 1e4d 303d 5de8 03be
00000320: a005 033d a307 0fbe b88c 803c d36f 013e
00000330: 8cf5 c9bc 80a6 b6bd e22f 363e f414 d3bb
00000340: a6ed dbbd 0c2f 1b3e 656e 04be 4010 1bbd
00000350: 9d66 01bd 7f00 36bd 56b4 d9bb 0f55 d93d
00000360: 2a64 2abe 5256 d1bd 50f9 fa3d b8d5 46be
00000370: de65 9d3c 1b3e af3d da17 8b3d a5e9 94bd
00000380: 6d7e 053e aa8d b4bd 9e05 38bd c7ad 8c3d
00000390: e5cd 18be cf15 99bd 552a 4dbd a23e e6bd
000003a0: 6480 35bd 00f8 ad3a 06b1 d7bc d652 d2bb
000003b0: d9b1 e4bc 378e fa3d e04c a03d 443a fd3d
000003c0: 8746 90b9 89b8 1c3e 9362 e23b e8ac 243e
000003d0: e313 1b3e 7d09 1e3e ed3e 933c d117 503d
000003e0: 0e01 e73d d4a4 fabb 82ff 8f3d cb0a 71bd
000003f0: 602b d9bd e791 dfbd c905 01bd 247b 763d

sequential_2/dense_10/MatMul f4 [38, 152]
0.15989259 -0.06857635 0.030978594 0.046231553 0.09230015 0.045183748 -0.020104703 0.16838439
-0.08750003 0.08098838 -0.03024037 0.18887809 0.16939832 0.15011004 -0.11058413 0.031586003
0.16928753 -0.09995607 -0.11230191 -0.13337286 -0.14351934 -0.09666858 0.1315194 -0.044179134
-0.0639699 0.04154184 0.20499995 0.056019958 -0.114400245 0.12945761 0.14953277 0.18522204
-0.06293415 0.09436112 -0.16748604 -0.18303344 -0.1950978 -0.04024969 0.020280866 -0.2097279
0.032474093 -0.021471467 0.12685828 0.15913966 0.19934309 -0.12269881 0.09860309 0.09943026
-0.028668502 -0.04790518 0.23009236 0.1571733 0.03882403 -0.1646378 0.124241225 -0.0015764829
-0.10011218 -0.1294825 0.081751876 0.16973776 0.09537909 -0.053898275 -0.00014458335 0.029712781
0.081477 -0.12631084 -0.08856654 -0.13529895 0.042172186 0.055487543 0.027515236 -0.07664025
0.13096318 -0.15014587 -0.09051244 0.19544156 -0.17479783 -0.054675184 0.117258534 -0.1210745
0.049489774 0.0035847246 -0.08365361 -0.023524538 0.023659617 -0.18201028 -0.07249287 0.03525204
-0.058759417 0.010859186 -0.05839295 0.09098143 -0.16325954 0.117489815 0.11169213 -0.0996156
-0.20394488 -0.03789619 -0.18040366 -0.15586723 -0.056992635 0.08756407 -0.034026444 -0.08483305
-0.011469532 0.014344798 -0.05031938 -0.18066522 -0.16719772 0.11050902 0.05149593 -0.109255336
-0.074356906 -0.066172116 0.006797792 0.14523154 0.11524439 -0.035674356 0.037066117 -0.06196753
-0.16832218 0.1525441 -0.15065926 0.08589364 -0.01295087 0.0050442964 -0.106387116 0.013299137
-0.15260972 -0.024098426 0.0977523 0.09358126 -0.052779466 -0.11758354 0.16974443 0.22607936
-0.13456015 -0.19577745 0.116751224 -0.099657625 0.03898069 0.13458768 -0.11871195 0.0001515887
-0.07704248 0.11479325 0.0782786 0.12131636 -0.10389466 -0.03158551 0.14613076 0.1466256
-0.01947348 0.18550381 -0.06996948 -0.06418478 0.08723009 0.12754382 0.15294014 -0.13900918
0.011055438 -0.088977106 0.037664037 -0.13511688 -0.048727628 -0.03318332 0.11740165 -0.08002005
0.1241457 -0.03133375 0.159459 0.04657051 -0.13665819 0.04935401 0.118986025 0.066568054
-0.16979848 0.16725627 -0.053118296 -0.017866468 0.14573827 0.12980251 0.18273106 0.13281333
0.15926662 0.1223941 0.054014217 -0.011932894 0.08246963 -0.10823116 -0.067685716 -0.035985027
-0.044058654 -0.046752844 -0.23424311 -0.22699694 0.10721458 0.2185637 0.1037457 -0.16536714
0.06521027 0.027649552 0.029961005 -0.122729436 -0.15511714 0.1769563 -0.11330602 -0.08704211
0.09733916 -0.047048803 0.020649245 0.065472975 -0.1814448 -0.17744757 0.061849184 0.17394042
0.020005697 0.050671462 0.046034563 -0.06295495 0.10769795 0.017272964 -0.042925145 -0.14210376
-0.07002167 -0.004707694 0.08355835 0.040843733 0.076542415 -0.16611001 -0.049586754 0.16773969
0.16418476 0.035138194 0.07448158 0.0672857 0.04488194 -0.023356115 0.1221433 0.012054481
-0.01832789 -0.010346414 0.11682847 0.17651933 0.026742421 0.12827393 0.024549603 -0.017883658
0.039802425 0.14495337 0.20739311 0.10951019 -0.044313114 0.10570609 -0.14596447 -0.0260794
00000000: e2ba 233e c271 8cbd d2c6 fd3c 4c5d 3d3d
00000010: dc07 bd3d 9812 393d 9eb2 a4bc f56c 2c3e
00000020: 3733 b3bd 3cdd a53d a7ba f7bc 4269 413e
00000030: c176 2d3e 72b6 193e ef79 e2bd 5360 013d
00000040: b659 2d3e c5b5 ccbd 8bfe e5bd e592 08be
00000050: bcf6 12be 2dfa c5bd 06ad 063e 2ef5 34bd
00000060: a702 83bd c727 2a3d 82eb 513e 2f75 653d
00000070: ad4a eabd 8990 043e 1e1f 193e d9aa 3d3e
00000080: 9fe3 80bd 6740 c13d 7681 2bbe 1e6d 3bbe
00000090: b8c7 47be dcdc 24bd 0f24 a63c e9c2 56be
000000a0: 8e03 053d eee4 afbc 23e7 013e 82f5 223e
000000b0: 9820 4c3e 8449 fbbd 6bf0 c93d 18a2 cb3d
000000c0: 35da eabc 3938 44bd 559d 6b3e 0af2 203e
000000d0: f205 1f3d d096 28be 2f72 fe3d fda1 ceba
000000e0: 9d07 cdbd 0f97 04be 876d a73d bccf 2d3e
000000f0: 1d56 c33d 70c4 5cbd 4c9b 17b9 3868 f33c
00000100: 6add a63d a157 01be 6062 b5bd cf8b 0abe
00000110: bebc 2c3d e846 633d a267 e13c 90f5 9cbd
00000120: 361b 063e d7bf 19be 965e b9bd d521 483e
00000130: 34fe 32be 16f3 5fbd 3e25 f03d e8f5 f7bd
00000140: cab5 4a3d b3ed 6a3b 9552 abbd 88b6 c0bc
00000150: d0d1 c13c e760 3abe 2477 94bd 7164 103d
00000160: b7ad 70bd baea 313c 722d 6fbd 7954 ba3d
00000170: 822d 27be 809e f03d d8be e43d 4403 ccbd
00000180: edd6 50be 0939 1bbd bdbb 38be a99b 1fbe
00000190: 1c71 69bd cb54 b33d 505f 0bbd f3bc adbd
000001a0: b4ea 3bbc 7206 6b3c b21b 4ebd 4e00 39be
000001b0: e135 2bbe 8e52 e23d 65ed 523d 43c1 dfbd
000001c0: 6f48 98bd 3f85 87bd 03c0 de3b 94b7 143e
000001d0: 4005 ec3d 461f 12bd a4d2 173d aad1 7dbd
000001e0: a65c 2cbe 8534 1c3e 6c46 1abe 01e9 af3d
000001f0: e32f 54bc a04a a53b 7de1 d9bd a0e4 593c
00000200: b945 1cbe 106a c5bc 5c32 c83d 88a7 bf3d
00000210: 482f 58bd a4cf f0bd 7cd1 2d3e 5981 673e
00000220: 23ca 09be e279 48be 441b ef3d 4c19 ccbd
00000230: 37aa 1f3d 5ad1 093e 401f f3bd c8f3 1e39
00000240: 73c8 9dbd b918 eb3d 8850 a03d b674 f83d
00000250: b9c6 d4bd cf5f 01bd 4da3 153e 0525 163e
00000260: d986 9fbc b6f4 3d3e 294c 8fbd 4f73 83bd
00000270: b0a5 b23d d99a 023e 579c 1c3e 6c58 0ebe
00000280: de21 353c a139 b6bd 9b45 1a3d 145c 0abe
00000290: 9f96 47bd 3ceb 07bd 4770 f03d 8de1 a3bd
000002a0: 1a40 fe3d d157 00bd 3849 233e b8c0 3e3d
000002b0: 20f0 0bbe 6e27 4a3d f2ae f33d d554 883d
000002c0: a7df 2dbe 3a45 2b3e 9292 59bd b35c 92bc
000002d0: 6a3c 153e f3ea 043e da1d 3b3e 3800 083e
000002e0: ca16 233e c2a9 fa3d 033e 5d3d 2f82 43bc
000002f0: d6e5 a83d 4ca8 ddbd cf9e 8abd 0965 13bd
00000300: d976 34bd e97f 3fbd 6ddd 6fbe e371 68be
00000310: 5193 db3d 2acf 5f3e a078 d43d 0156 29be
00000320: f68c 853d 5081 e23c c870 f53c 9259 fbbd
00000330: 07d7 1ebe 0834 353e fd0c e8bd 2243 b2bd
00000340: c159 c73d 3fb6 40bd 9b28 a93c b216 863d
00000350: aacc 39be d1b4 35be 9255 7d3d 701d 323e
00000360: fde2 a33c e18c 4f3d bd8e 3c3d 86ee 80bd
00000370: be90 dc3d 0880 8d3c 47d2 2fbd a683 11be
00000380: 8567 8fbd 0043 9abb a420 ab3d c24b 273d
00000390: 45c2 9c3d be18 2abe 7b1b 4bbd f4c3 2b3e
000003a0: 0d20 283e 11ed 0f3d cc89 983d 16cd 893d
000003b0: 20d6 373d 5355 bfbc 4426 fa3d 2880 453c
000003c0: 5f24 96bc 0184 29bc c443 ef3d 7cc1 343e
000003d0: ec12 db3c 3e5a 033e 401c c93c c080 92bc
000003e0: de07 233d a86e 143e dc5e 543e e146 e03d
000003f0: ab81 35bd 6f7c d83d b677 15be 77a4 d5bc

sequential_2/dense_11/MatMul f4 [1, 38]
0.4109355 -0.1839272 -0.07034084 -0.187234 -0.39313495 0.42978683 0.17161691 0.30544743
0.30725732 -0.29596007 0.26059654 -0.2721092 -0.20785595 0.2413782 -0.08482384 -0.071338266
-0.15267044 0.20829716 0.33814612 -0.43340355 0.10158216 0.34404165 -0.2567867 0.12696816
-0.05394683 0.06648197 0.15421717 -0.24952927 0.09356839 0.19445261 -0.36802986 0.022911554
-0.31089327 0.11194522 0.025207596 0.38134715 -0.23111424 -0.18715109
00000000: 2366 d23e 6957 3cbe dc0e 90bd 45ba 3fbe
00000010: fc48 c9be 050d dc3e 58bc 2f3e 9b63 9c3e
00000020: d550 9d3e 1488 97be e96c 853e e651 8bbe
00000030: 31d8 54be d92b 773e 1fb8 adbd cc19 92bd
00000040: a455 1cbe da4b 553e 7d21 ad3e 12e7 ddbe
00000050: 4f0a d03d 3a26 b03e 8c79 83be f103 023e
00000060: 5af7 5cbd b327 883d 1beb 1d3e 9a84 7fbe
00000070: c9a0 bf3d 961e 473e 696e bcbe 03b1 bb3c
00000080: 672d 9fbe 8943 e53d 2980 ce3c ef3f c33e
00000090: 36a9 6cbe 89a4 3fbe
